…
X_test_df shape: (733705, 37)
y_test_df shape: (733705,)

Converting dataframe to numpy array.
X_train shape: (2201112, 37)
y_train shape: (2201112,)
X_val shape: (733705, 37)
y_val shape: (733705,)
X_test shape: (733705, 37)
y_test shape: (733705,)

Applying normalization.
1.394124984741211 to normalize data.
7
(2201112, 7, 7, 1)
(733705, 7, 7, 1)
(733705, 7, 7, 1)
Model: "sequential"
_________________________________________________________________
Layer (type)                 Output Shape              Param #   
=================================================================
conv2d (Conv2D)              (None, 6, 6, 64)          320       
_________________________________________________________________
conv2d_1 (Conv2D)            (None, 5, 5, 64)          16448     
_________________________________________________________________
max_pooling2d (MaxPooling2D) (None, 2, 2, 64)          0         
_________________________________________________________________
flatten (Flatten)            (None, 256)               0         
_________________________________________________________________
dropout (Dropout)            (None, 256)               0         
_________________________________________________________________
dense (Dense)                (None, 64)                16448     
_________________________________________________________________
dense_1 (Dense)              (None, 1)                 65        
=================================================================
Total params: 33,281
Trainable params: 33,281
Non-trainable params: 0
_________________________________________________________________

Fitting the network.
Epoch 1/10
441/441 - 148s - loss: 0.0209 - binary_accuracy: 0.9982 - precision: 0.9999 - val_binary_accuracy: 0.9999 - val_precision: 0.9999 - val_loss: 9.6316e-04
Epoch 2/10
…
